…
169099264/170498071 [============================>.] - ETA: 0s170498071/170498071 [==============================] - 5s 0us/step
68.3s 19 
68.3s 20 Visualize 100 random images along with their labels from the training set
78.5s 21 Model: "sequential"
78.5s 22 _________________________________________________________________
78.5s 23 Layer (type)                Output Shape              Param #
78.5s 24 =================================================================
78.5s 25 Conv_1 (Conv2D)             (None, 32, 32, 32)        896
78.5s 26 
78.5s 27 Batch_Norm_1 (BatchNormali  (None, 32, 32, 32)        128
78.5s 28 zation)
78.5s 29 
78.5s 30 Conv_2 (Conv2D)             (None, 32, 32, 32)        9248
78.5s 31 
78.5s 32 Batch_Norm_2 (BatchNormali  (None, 32, 32, 32)        128
78.5s 33 zation)
78.5s 34 
78.5s 35 Max_Pool_1 (MaxPooling2D)   (None, 16, 16, 32)        0
78.5s 36 
78.5s 37 Dropout_1 (Dropout)         (None, 16, 16, 32)        0
78.5s 38 
78.5s 39 Conv_3 (Conv2D)             (None, 16, 16, 64)        18496
78.5s 40 
78.5s 41 Batch_Norm_3 (BatchNormali  (None, 16, 16, 64)        256
78.5s 42 zation)
78.5s 43 
78.5s 44 Conv_4 (Conv2D)             (None, 16, 16, 64)        36928
78.5s 45 
78.5s 46 Batch_Norm_4 (BatchNormali  (None, 16, 16, 64)        256
78.5s 47 zation)
78.5s 48 
78.5s 49 Max_Pool_2 (MaxPooling2D)   (None, 8, 8, 64)          0
78.5s 50 
78.5s 51 Dropout_2 (Dropout)         (None, 8, 8, 64)          0
78.5s 52 
78.5s 53 Conv_5 (Conv2D)             (None, 8, 8, 128)         73856
78.5s 54 
78.5s 55 Batch_Norm_5 (BatchNormali  (None, 8, 8, 128)         512
78.5s 56 zation)
78.5s 57 
78.5s 58 Conv_6 (Conv2D)             (None, 8, 8, 128)         147584
78.5s 59 
78.5s 60 Batch_Norm_6 (BatchNormali  (None, 8, 8, 128)         512
78.5s 61 zation)
78.5s 62 
78.5s 63 Max_Pool_3 (MaxPooling2D)   (None, 4, 4, 128)         0
78.5s 64 
78.5s 65 Dropout_3 (Dropout)         (None, 4, 4, 128)         0
78.5s 66 
78.5s 67 Flatten_Layer (Flatten)     (None, 2048)              0
78.5s 68 
78.5s 69 Fully_Connected_Layer (Den  (None, 128)               262272
78.5s 70 se)
78.5s 71 
78.5s 72 Dropout_4 (Dropout)         (None, 128)               0
78.5s 73 
78.5s 74 Output_Layer (Dense)        (None, 10)                1290
78.5s 75 
78.5s 76 =================================================================
78.5s 77 Total params: 552362 (2.11 MB)
78.6s 78 Trainable params: 551466 (2.10 MB)
78.6s 79 Non-trainable params: 896 (3.50 KB)
78.6s 80 _________________________________________________________________
78.7s 81 
78.7s 82 
78.9s 83 
78.9s 84 
80.4s 85 Epoch 1/20
82.7s 86 2023-12-01 17:50:07.569062: E tensorflow/core/grappler/optimizers/meta_optimizer.cc:954] layout failed: INVALID_ARGUMENT: Size of values 0 does not match size of permutation 4 @ fanin shape insequential/Dropout_1/dropout/SelectV2-2-TransposeNHWCToNCHW-LayoutOptimizer
…
